tensorflow/save/model.onnx (onnx, 55808 bytes, 4 tensors)

sequential/conv1/Conv2D/ReadVariableOp:0 f4 [8, 1, 3, 3]
000000 bf 9a 2b 3e 3b 7d bb be 97 e6 29 be ae a7 49 bd
       0.1675825 -0.3661898 -0.1659187 -0.049232177
000010 75 e0 85 be 7f ee 30 3e 31 47 89 3e d7 92 cc 3e
       -0.2614781 0.17278479 0.26812127 0.3995578
000020 9c 6a b0 bd 9b 44 1c bf 97 3c a2 3c 76 a0 09 3f
       -0.08614084 -0.61042184 0.019804282 0.5376047
000030 e7 6b 3b bf dc 33 72 3e 6a 46 2e 3f 45 c0 ef be
       -0.7321152 0.23652595 0.68076193 -0.46826378
000040 b8 99 87 bd 0a 21 b3 3e 6f bc fe 3e c2 21 3d 3f
       -0.066211164 0.34986144 0.49753138 0.73879635
000050 fc 98 ae be a8 dc 56 3e 2b 3e c3 3c e6 ca a9 3e
       -0.34101093 0.20982611 0.023833355 0.33162612
000060 d8 7c 71 bf 73 47 0b bf 66 12 bb 3d 5b 35 61 3c
       -0.9433112 -0.544059 0.091343686 0.013745631
000070 dc ef 34 be 11 6a 5f bd 46 2d 0e 3e 97 a7 ab 3e
       -0.17669624 -0.054544512 0.13884458 0.33526298
000080 3a a4 a6 3e 6d 73 c7 ba 31 e2 98 3c c4 9a 15 be
       0.3254717 -0.0015216895 0.018662544 -0.1460982
000090 b0 95 fc bd e5 21 a3 3c ba 54 64 be 35 79 48 3e
       -0.12333238 0.019913623 -0.22297946 0.19577487
0000a0 7b 8c 7d 3e 73 91 d1 3c 4b c2 51 3d 33 24 d3 3b
       0.2476062 0.02558205 0.051210683 0.0064435243
0000b0 74 bd 44 bb 99 12 de 3e 88 9d 66 3a 47 54 e9 be
       -0.003002015 0.43373564 0.00087972777 -0.4557211
0000c0 4c 7b 54 3f 44 a2 ef bd 47 43 3d bf 59 a9 00 3f
       0.83000636 -0.117008716 -0.7393078 0.50258404
0000d0 9a 28 cf 3d c3 94 10 bf 1f 46 80 bf ee cf 0c c0
       0.10115166 -0.5647699 -1.0021399 -2.200191
0000e0 82 ca 42 bf aa ef 47 3d 22 78 01 bf a0 cc 36 3e
       -0.7609025 0.048812546 -0.50573933 0.17851496
0000f0 a3 e0 17 3e 61 8b 22 3f 6c ac 18 3f 5e 86 96 be
       0.14831786 0.63493925 0.59638095 -0.2939939
000100 c7 f4 c6 3e 6d 03 d1 bd 44 aa f8 bd 4b 46 2c 3e
       0.38858625 -0.102057315 -0.121418506 0.1682369
000110 87 db 76 bc 23 98 ac 3e 27 3a 1d 3f 30 0d 08 be
       -0.015066988 0.3370982 0.6141686 -0.1328628

sequential/conv1/BiasAdd/ReadVariableOp:0 f4 [8]
000000 4c 61 83 bb b4 53 18 3d fe 45 c0 3b 2d a1 45 bb
       -0.0040094014 0.0371892 0.0058677187 -0.0030155883
000010 97 a5 b6 bb 51 5f 75 3c df 5e ba 3e 16 ac 97 bb
       -0.005573939 0.0149763385 0.36400506 -0.0046286685

sequential/Dense/MatMul/ReadVariableOp:0 f4 [1352, 10]
000000 f1 23 38 be ee f1 7d be 9c 51 6c 3e 44 b4 a9 3d
       -0.1798246 -0.2479932 0.23078007 0.08286336
000010 9e 23 24 3e e9 52 28 3e 3f 87 f5 bd b0 54 72 3d
       0.16029212 0.16437878 -0.11988687 0.059162796
000020 10 ce b0 bd e7 b1 33 be 29 0b 51 3d 62 c4 a8 bd
       -0.08633053 -0.17548333 0.051036034 -0.08240582
000030 4e 0d 05 3e 7c 56 2e be 2e a0 dc bd 6a 17 a1 bd
       0.12993357 -0.17025179 -0.10772739 -0.07865794
000040 d0 92 bf 3d fb 1c e4 3d a3 59 1b be 16 c8 65 bd
       0.09354174 0.1113834 -0.15170912 -0.05609902
000050 ae 99 15 3e fc 1d 82 be e4 96 8d 3c 56 5c 3d be
       0.14609405 -0.254135 0.017283864 -0.18492255
000060 53 0e 24 3d 0b 12 55 bd e6 e6 34 bd ad 9c b0 3e
       0.040052723 -0.05201916 -0.044165514 0.34494534
000070 72 b1 b7 bd 97 9b 15 be 8c 21 a6 3d 2c 14 da be
       -0.08969392 -0.14610134 0.08111867 -0.42593515
000080 34 2a 4a bd 47 f8 b3 bd cb 60 04 3e c6 02 c5 3d
       -0.049356654 -0.087875895 0.12927549 0.096196696
000090 ed 1a dd 3d c1 61 0f 3e 81 09 f1 bd 29 e6 bd be
       0.10796151 0.14002134 -0.11769391 -0.3708966
0000a0 a7 0f 79 bd ca ca 89 be de bc cd 3d eb 46 62 3d
       -0.060805943 -0.26912528 0.10045789 0.055243414
0000b0 30 5e cb 3d 7f 76 0e 3e d2 f0 43 be f6 5f 78 3e
       0.09930074 0.1391239 -0.19134834 0.24255356
0000c0 4f a4 9f 3d 83 a9 a1 be 51 fa 04 3e 28 7e e7 bb
       0.07795011 -0.3157464 0.12986113 -0.0070645995
0000d0 a8 74 4c 3e 76 ec b8 3c 5f e6 fb bd 00 dd 22 be
       0.19966376 0.02257369 -0.12299799 -0.15904617
0000e0 d0 f9 d0 bd 00 6a de 3d 2a c1 73 bd a3 13 a5 bb
       -0.10203898 0.10860062 -0.059510387 -0.0050377413
0000f0 c1 2a 40 bd cd c0 79 bd ff 45 d2 3d f5 1a 4a bd
       -0.046915773 -0.060974885 0.10267257 -0.049342114
000100 ca 44 93 bd 2b f7 26 be 91 3c 39 3c a7 ea c2 3d
       -0.07190855 -0.16305225 0.011305944 0.09517413
000110 38 9c 08 3d 0a a5 39 bc ab c5 a8 be 2d 56 e1 bd
       0.033352107 -0.011330852 -0.3296331 -0.11002765
000120 4b a3 79 3e 87 e0 d4 3d 81 b1 04 bb 2a f8 7a bb
       0.24378698 0.10394388 -0.0020247402 -0.003829489
000130 14 3e ed bd 08 33 87 3e e7 bf c2 3d 1e 83 0b be
       -0.11584106 0.2640612 0.09509259 -0.13624236
000140 d2 3e 26 3d d3 c6 9d be 56 fc eb bd 0e 93 9e bd
       0.040587254 -0.30815753 -0.11522739 -0.07742892
000150 bc 50 a7 3d e2 0c 2e 3d 1d cb b5 3d 7e 8c 79 3c
       0.08169696 0.042492755 0.088766314 0.01523125
000160 7a 2e 23 bd 85 bc 4d be 65 33 00 be 17 40 b1 bb
       -0.039839245 -0.20091446 -0.12519605 -0.0054092514
000170 4d 57 c1 bd c5 1c ed 3d bd 52 c3 bd 2a 23 cb bd
       -0.094404794 0.11577753 -0.095372654 -0.099188164
000180 ca df fb 3d 40 94 58 3d 11 c8 20 be 75 45 b2 3b
       0.12298544 0.052875757 -0.1570132 0.005440409
000190 99 d8 05 bd 16 a2 7a bd b5 b2 86 be 9c 29 ad 3e
       -0.032677267 -0.061189733 -0.26308218 0.33820808
0001a0 4d 48 93 be f9 f7 b6 be d5 91 5a 3e 9a 40 19 3e
       -0.287661 -0.35736063 0.21344693 0.1496605
0001b0 bd 18 8f bd ff a7 60 be a8 16 65 bd 2c b4 1c be
       -0.0698714 -0.21939085 -0.05592981 -0.15303105
0001c0 f8 76 7f be b4 5f dc 3b 73 5f 11 be aa de 45 be
       -0.24947727 0.006725276 -0.14196567 -0.19323221
0001d0 da 00 0d 3e 96 15 8d 3d 54 96 d5 bd c4 83 b6 be
       0.13769856 0.06888883 -0.104290634 -0.35647404
0001e0 9f 61 9f 3d 65 20 ef bd aa 2a 85 be d3 37 7a 3d
       0.077822916 -0.11676101 -0.26009113 0.061088394
0001f0 cf 77 45 be e2 d0 0a be 9e c6 41 3e 42 92 c4 3c
       -0.19283985 -0.13556245 0.18923423 0.023995522
000200 0a e0 fb bd 23 07 d6 be 40 77 1e 3e d1 99 e5 bd
       -0.122985914 -0.4180232 0.15475178 -0.11210979
000210 b3 67 55 3e 51 91 18 be 6d 92 0d be 39 32 6a bd
       0.2084034 -0.14899184 -0.13825388 -0.057176802
000220 be b2 b8 bd d9 ee 96 3d 93 4e 0d be e3 d8 82 bd
       -0.09018467 0.07369775 -0.13799505 -0.06389024
000230 4b 92 1c 3d 99 47 f3 bc 55 78 1b 3d 1f a7 91 bd
       0.038225453 -0.029697226 0.037956554 -0.07111954
000240 53 23 9f bd d7 86 07 be a8 6c a1 3d 21 15 e1 3d
       -0.077704094 -0.13235031 0.07882053 0.10990358
000250 ad ed 5d 3d 01 4f 3c 3d c6 89 99 3d 30 e0 4b be
       0.054181743 0.04597378 0.07496981 -0.1990974
000260 7a 74 36 be 5b fb 46 bd fc 99 a7 be c4 0b 85 be
       -0.1781787 -0.048579555 -0.32734668 -0.2598554
000270 9e 65 b2 3d a9 d3 d3 3d aa 4d 5a 3d 26 5d 8b be
       0.08710788 0.10343105 0.053296722 -0.27219504
000280 7e 80 da bd f8 3b b9 bd a5 5c 29 be 5f a1 6e 3c
       -0.10669039 -0.09044641 -0.16539247 0.014564841
000290 e1 b9 d4 bd 59 40 05 be 8d 1e 3e 3e 9c 56 c3 bd
       -0.10387016 -0.13012828 0.18566342 -0.09538004
0002a0 db 93 13 be 43 10 91 be b3 73 4e be f4 b4 53 3e
       -0.14411871 -0.2833272 -0.20161323 0.20674497
0002b0 99 e9 25 be d7 82 a2 3e 25 e2 23 be c4 73 0a be
       -0.16202392 0.31740448 -0.16004236 -0.13520724
0002c0 98 ab d1 3c d9 12 14 3d a0 12 20 3e 10 c6 85 bd
       0.025594518 0.036150787 0.15632105 -0.06531918
0002d0 24 c2 95 be e0 59 69 3e 39 d5 7a 3c ea 8d 8d 3e
       -0.2924968 0.22788191 0.015309625 0.27647334
0002e0 a6 bb cb bd c8 d7 9b be 3e 4a 4a 3e ba cb 00 3e
       -0.099479005 -0.30438066 0.19754884 0.12577716
0002f0 05 fb d5 3d c6 56 76 be f8 4e b6 be 97 c6 0b 3e
       0.10448269 -0.24056539 -0.35607123 0.13649975
000300 b9 23 9a be 94 9c fe 3e 77 97 a2 be c4 a5 b3 be
       -0.3010538 0.49728835 -0.31756184 -0.35087407
000310 e2 94 57 3e 13 36 50 be 66 b1 e8 3d 36 02 d3 be
       0.21052888 -0.20333128 0.11361961 -0.41212624
000320 f6 fe 28 be 10 5c 60 bd de 28 27 be d5 f8 84 3e
       -0.1650351 -0.054775298 -0.16324183 0.25971094
000330 18 ea a5 be 94 65 c3 be b3 d6 8a 3e a1 de 97 bd
       -0.32405162 -0.38163435 0.27116928 -0.0741551
000340 f2 75 75 3b 01 33 c2 be 88 90 00 3e 2e 4a 99 3d
       0.0037454334 -0.37929538 0.12555134 0.07484852
000350 06 05 85 be 65 60 73 bc 0f b8 23 3d ea 75 a0 bd
       -0.25980395 -0.014854525 0.039970454 -0.0783499
000360 9f ee 25 3e 7f 3b 06 ba 28 63 89 be 3b 33 41 3d
       0.16204308 -0.000512056 -0.26833463 0.047167998
000370 19 e3 4d 3d cd 23 48 be ff 8e b4 3d e5 66 64 be
       0.050265405 -0.19544907 0.08816337 -0.22304876
000380 ab 4a 4b be cb 06 5c be 24 b0 62 3e ae 9c 3e 3c
       -0.19852702 -0.21486966 0.22137505 0.011634035
000390 23 41 f3 bd e4 5c fb bc bf 72 e6 bd 53 df a8 bc
       -0.11877658 -0.030683942 -0.11252355 -0.020614302
0003a0 80 b0 68 be 05 21 90 3e 84 e2 09 be c0 33 60 be
       -0.2272358 0.28150192 -0.13465315 -0.21894741
0003b0 d2 f8 2a 3e a8 3e c9 3c 89 9e 1e 3d 42 5b a4 be
       0.1669648 0.02456601 0.03872541 -0.32100874
0003c0 fb f5 1e be 2e c7 85 be ed c3 3e bd 51 3d 1b 3e
       -0.15523522 -0.26128525 -0.046573568 0.15160109
0003d0 94 28 8f be f3 ef 8e be 30 f3 6d 3e 97 c0 38 be
       -0.27960646 -0.27917442 0.232373 -0.18042217
0003e0 c3 ec c4 bc ae 21 ad be 8d ad 37 3e 46 50 31 3d
       -0.024038678 -0.33814758 0.17937298 0.043289445
0003f0 73 22 86 3d b1 7a a9 bd c6 af 0a be a7 21 70 be
       0.065495394 -0.08275355 -0.13543615 -0.23450337

sequential/Dense/BiasAdd/ReadVariableOp:0 f4 [10]
000000 2a b5 af 3c ce 7b 81 bd ed a3 10 3e 85 af 36 bd
       0.02144869 -0.06322442 0.14125033 -0.044600982
000010 aa 7c eb bd 42 8f f5 bd c6 a0 8d bb c7 1e b9 3d
       -0.11498387 -0.11990215 -0.004322144 0.090390734
000020 c9 48 30 bd 7b 70 00 3d
       -0.043038163 0.03135727
